…
'True', 'target_kl': 'None', 'lr_schedule': '<function get_schedule_fn.<locals>.<lambda> at 0x31c3ffce0>', 'rollout_buffer': '<stable_baselines3.common.buffers.RolloutBuffer object at 0x31ba92630>', 'policy': 'ActorCriticPolicy(\n  (features_extractor): FlattenExtractor(\n    (flatten): Flatten(start_dim=1, end_dim=-1)\n  )\n  (pi_features_extractor): FlattenExtractor(\n    (flatten): Flatten(start_dim=1, end_dim=-1)\n  )\n  (vf_features_extractor): FlattenExtractor(\n    (flatten): Flatten(start_dim=1, end_dim=-1)\n  )\n  (mlp_extractor): MlpExtractor(\n    (policy_net): Sequential(\n      (0): Linear(in_features=8, out_features=64, bias=True)\n      (1): Tanh()\n      (2): Linear(in_features=64, out_features=64, bias=True)\n      (3): Tanh()\n    )\n    (value_net): Sequential(\n      (0): Linear(in_features=8, out_features=64, bias=True)\n      (1): Tanh()\n      (2): Linear(in_features=64, out_features=64, bias=True)\n      (3): Tanh()\n    )\n  )\n  (action_net): Linear(in_features=64, out_features=4, bias=True)\n  (value_net): Linear(in_features=64, out_features=1, bias=True)\n)', '_logger': '<stable_baselines3.common.logger.Logger object at 0x31c0b90a0>'}
2024-11-13 02:24:34,127 INFO    MainThread:94494 [jupyter.py:save_ipynb():387] not saving jupyter notebook
2024-11-13 02:24:34,132 INFO    MainThread:94494 [wandb_init.py:_pause_backend():444] pausing backend
2024-11-13 02:24:34,335 INFO    MainThread:94494 [wandb_init.py:_resume_backend():449] resuming backend
…
2024-11-13 03:28:15,132 INFO    MainThread:94494 [wandb_run.py:_config_callback():1389] config_cb None None {'buffer_size': 1000000, 'learning_starts': 100, 'tau': 1.0, 'gradient_steps': 1, 'optimize_memory_usage': 'False', 'replay_buffer': '<stable_baselines3.common.buffers.ReplayBuffer object at 0x135ed1910>', 'replay_buffer_class': "<class 'stable_baselines3.common.buffers.ReplayBuffer'>", 'replay_buffer_kwargs': '{}', '_episode_storage': 'None', 'train_freq': "TrainFreq(frequency=4, unit=<TrainFrequencyUnit.STEP: 'step'>)", 'use_sde_at_warmup': 'False', 'exploration_initial_eps': 1.0, 'exploration_final_eps': 0.05, 'exploration_fraction': 0.1, 'target_update_interval': 10000, '_n_calls': 0, 'exploration_rate': 0.0, 'q_net': 'QNetwork(\n  (features_extractor): FlattenExtractor(\n    (flatten): Flatten(start_dim=1, end_dim=-1)\n  )\n  (q_net): Sequential(\n    (0): Linear(in_features=8, out_features=64, bias=True)\n    (1): ReLU()\n    (2): Linear(in_features=64, out_features=64, bias=True)\n    (3): ReLU()\n    (4): Linear(in_features=64, out_features=4, bias=True)\n  )\n)', 'q_net_target': 'QNetwork(\n  (features_extractor): FlattenExtractor(\n    (flatten): Flatten(start_dim=1, end_dim=-1)\n  )\n  (q_net): Sequential(\n    (0): Linear(in_features=8, out_features=64, bias=True)\n    (1): ReLU()\n    (2): Linear(in_features=64, out_features=64, bias=True)\n    (3): ReLU()\n    (4): Linear(in_features=64, out_features=4, bias=True)\n  )\n)', 'batch_norm_stats': '[]', 'batch_norm_stats_target': '[]', 'exploration_schedule': '<function get_linear_fn.<locals>.func at 0x135f2f9c0>'}
2024-11-13 03:43:04,602 INFO    MainThread:94494 [jupyter.py:save_ipynb():387] not saving jupyter notebook
2024-11-13 03:43:04,603 INFO    MainThread:94494 [wandb_init.py:_pause_backend():444] pausing backend
…
